…
>>> (Not used)decay_steps: -1
>>> decay_epoch:  1
>>> decay_rate: 9.500000e-01
>>> start_pref_e: 1.000000e+00
>>> limit_pref_e: 1.000000e+00
>>> start_pref_f: 1.000000e+04
>>> limit_pref_f: 1.000000e+00
>>> check_step: 1000
>>> output_epoch: 10
>>> save_epoch: 10

Total number of frames:  7
Number of atoms aligned:  114
COORD_Reshape: shape =  (7, 342)
FORCE_Reshape: shape =  (7, 342)
TYPE_Reshape: shape =  (7, 114)
NEI_IDX_Reshape: shape =  (7, 65094)
NEI_COORD_Reshape: shape =  (7, 195282)
NEI_TYPE_Reshape: shape =  (455658,)
Data pre-processing complete. Building net work.

one_batch_net(
  (batch_norm): BatchNorm1d(114, eps=1e-05, momentum=0.1, affine=True, track_running_stats=True)
  (filter_input): ModuleList(
    (0): ModuleList(
      (0): Linear(in_features=1, out_features=57, bias=True)
      (1): Linear(in_features=1, out_features=57, bias=True)
    )
    (1): ModuleList(
      (0): Linear(in_features=1, out_features=57, bias=True)
      (1): Linear(in_features=1, out_features=57, bias=True)
    )
  )
  (filter_hidden): ModuleList(
    (0): ModuleList(
      (0): ModuleList(
        (0): Linear(in_features=57, out_features=55, bias=True)
        (1): Linear(in_features=55, out_features=104, bias=True)
      )
      (1): ModuleList(
        (0): Linear(in_features=57, out_features=55, bias=True)
        (1): Linear(in_features=55, out_features=104, bias=True)
      )
    )
    (1): ModuleList(
      (0): ModuleList(
        (0): Linear(in_features=57, out_features=55, bias=True)
        (1): Linear(in_features=55, out_features=104, bias=True)
      )
      (1): ModuleList(
        (0): Linear(in_features=57, out_features=55, bias=True)
        (1): Linear(in_features=55, out_features=104, bias=True)
      )
    )
  )
  (fitting_input): ModuleList(
    (0): Linear(in_features=208, out_features=216, bias=True)
    (1): Linear(in_features=208, out_features=216, bias=True)
  )
  (fitting_hidden): ModuleList(
    (0): ModuleList(
      (0): Linear(in_features=216, out_features=127, bias=True)
      (1): Linear(in_features=127, out_features=76, bias=True)
      (2): Linear(in_features=76, out_features=30, bias=True)
    )
    (1): ModuleList(
      (0): Linear(in_features=216, out_features=127, bias=True)
      (1): Linear(in_features=127, out_features=76, bias=True)
      (2): Linear(in_features=76, out_features=30, bias=True)
    )
  )
  (fitting_out): ModuleList(
    (0): Linear(in_features=30, out_features=1, bias=True)
    (1): Linear(in_features=30, out_features=1, bias=True)
  )
)
Number of parameters in the net: 206284
Start training using device:  cuda , count:  1
LR update: lr = 0.000500
Force check:
 tensor([[… device='cuda:0')
Additional parameters check:
 std:
 tensor([[[0.0628426156, 0.0379578249, 0.0379578249, 0.0379578249],
         [0.0704137771, 0.0437082749, 0.0437082749, 0.0437082749]]],
       device='cuda:0') 
avg:
…
