…
>>> (Not used)decay_steps: -1
>>> decay_epoch:  1
>>> decay_rate: 9.500000e-01
>>> start_pref_e: 1.000000e+00
>>> limit_pref_e: 1.000000e+00
>>> start_pref_f: 1.000000e+04
>>> limit_pref_f: 1.000000e+00
>>> check_step: 1000
>>> output_epoch: 10
>>> save_epoch: 10

Total number of frames:  1
Number of atoms aligned:  16
COORD_Reshape: shape =  (1, 48)
FORCE_Reshape: shape =  (1, 48)
TYPE_Reshape: shape =  (1, 16)
NEI_IDX_Reshape: shape =  (1, 8736)
NEI_COORD_Reshape: shape =  (1, 26208)
NEI_TYPE_Reshape: shape =  (8736,)
Data pre-processing complete. Building net work.

one_batch_net(
  (batch_norm): BatchNorm1d(16, eps=1e-05, momentum=0.1, affine=True, track_running_stats=True)
  (filter_input): ModuleList(
    (0): ModuleList(
      (0): Linear(in_features=1, out_features=87, bias=True)
      (1): Linear(in_features=1, out_features=87, bias=True)
    )
    (1): ModuleList(
      (0): Linear(in_features=1, out_features=87, bias=True)
      (1): Linear(in_features=1, out_features=87, bias=True)
    )
  )
  (filter_hidden): ModuleList(
    (0): ModuleList(
      (0): ModuleList(
        (0): Linear(in_features=87, out_features=70, bias=True)
        (1): Linear(in_features=70, out_features=47, bias=True)
      )
      (1): ModuleList(
        (0): Linear(in_features=87, out_features=70, bias=True)
        (1): Linear(in_features=70, out_features=47, bias=True)
      )
    )
    (1): ModuleList(
      (0): ModuleList(
        (0): Linear(in_features=87, out_features=70, bias=True)
        (1): Linear(in_features=70, out_features=47, bias=True)
      )
      (1): ModuleList(
        (0): Linear(in_features=87, out_features=70, bias=True)
        (1): Linear(in_features=70, out_features=47, bias=True)
      )
    )
  )
  (fitting_input): ModuleList(
    (0): Linear(in_features=94, out_features=273, bias=True)
    (1): Linear(in_features=94, out_features=273, bias=True)
  )
  (fitting_hidden): ModuleList(
    (0): ModuleList(
      (0): Linear(in_features=273, out_features=164, bias=True)
      (1): Linear(in_features=164, out_features=85, bias=True)
      (2): Linear(in_features=85, out_features=72, bias=True)
    )
    (1): ModuleList(
      (0): Linear(in_features=273, out_features=164, bias=True)
      (1): Linear(in_features=164, out_features=85, bias=True)
      (2): Linear(in_features=85, out_features=72, bias=True)
    )
  )
  (fitting_out): ModuleList(
    (0): Linear(in_features=72, out_features=1, bias=True)
    (1): Linear(in_features=72, out_features=1, bias=True)
  )
)
Number of parameters in the net: 221038
Start training using device:  cuda , count:  1
LR update: lr = 0.000500
Force check:
 tensor([[ … device='cuda:0')
Additional parameters check:
 std:
 tensor([[[0.0677378193, 0.0411982258, 0.0411982258, 0.0411982258],
         [0.0682462577, 0.0417441616, 0.0417441616, 0.0417441616]]],
       device='cuda:0') 
…
