…
>>> (Not used)decay_steps: -1
>>> decay_epoch:  1
>>> decay_rate: 9.500000e-01
>>> start_pref_e: 1.000000e+00
>>> limit_pref_e: 1.000000e+00
>>> start_pref_f: 1.000000e+04
>>> limit_pref_f: 1.000000e+00
>>> check_step: 1000
>>> output_epoch: 10
>>> save_epoch: 10

Total number of frames:  8
Number of atoms aligned:  49
COORD_Reshape: shape =  (8, 147)
FORCE_Reshape: shape =  (8, 147)
TYPE_Reshape: shape =  (8, 49)
NEI_IDX_Reshape: shape =  (8, 28077)
NEI_COORD_Reshape: shape =  (8, 84231)
NEI_TYPE_Reshape: shape =  (224616,)
Data pre-processing complete. Building net work.

one_batch_net(
  (batch_norm): BatchNorm1d(49, eps=1e-05, momentum=0.1, affine=True, track_running_stats=True)
  (filter_input): ModuleList(
    (0): ModuleList(
      (0): Linear(in_features=1, out_features=109, bias=True)
      (1): Linear(in_features=1, out_features=109, bias=True)
    )
    (1): ModuleList(
      (0): Linear(in_features=1, out_features=109, bias=True)
      (1): Linear(in_features=1, out_features=109, bias=True)
    )
  )
  (filter_hidden): ModuleList(
    (0): ModuleList(
      (0): ModuleList(
        (0): Linear(in_features=109, out_features=71, bias=True)
        (1): Linear(in_features=71, out_features=99, bias=True)
      )
      (1): ModuleList(
        (0): Linear(in_features=109, out_features=71, bias=True)
        (1): Linear(in_features=71, out_features=99, bias=True)
      )
    )
    (1): ModuleList(
      (0): ModuleList(
        (0): Linear(in_features=109, out_features=71, bias=True)
        (1): Linear(in_features=71, out_features=99, bias=True)
      )
      (1): ModuleList(
        (0): Linear(in_features=109, out_features=71, bias=True)
        (1): Linear(in_features=71, out_features=99, bias=True)
      )
    )
  )
  (fitting_input): ModuleList(
    (0): Linear(in_features=198, out_features=225, bias=True)
    (1): Linear(in_features=198, out_features=225, bias=True)
  )
  (fitting_hidden): ModuleList(
    (0): ModuleList(
      (0): Linear(in_features=225, out_features=183, bias=True)
      (1): Linear(in_features=183, out_features=110, bias=True)
      (2): Linear(in_features=110, out_features=68, bias=True)
    )
    (1): ModuleList(
      (0): Linear(in_features=225, out_features=183, bias=True)
      (1): Linear(in_features=183, out_features=110, bias=True)
      (2): Linear(in_features=110, out_features=68, bias=True)
    )
  )
  (fitting_out): ModuleList(
    (0): Linear(in_features=68, out_features=1, bias=True)
    (1): Linear(in_features=68, out_features=1, bias=True)
  )
)
Number of parameters in the net: 288702
Start training using device:  cuda , count:  1
LR update: lr = 0.000500
Force check:
 tensor([[ … device='cuda:0')
Additional parameters check:
 std:
 tensor([[[0.0676463638, 0.0412958804, 0.0412958804, 0.0412958804],
         [0.0723431977, 0.0452472158, 0.0452472158, 0.0452472158]]],
       device='cuda:0') 
…
