…
>>> (Not used)decay_steps: -1
>>> decay_epoch:  1
>>> decay_rate: 9.500000e-01
>>> start_pref_e: 1.000000e+00
>>> limit_pref_e: 1.000000e+00
>>> start_pref_f: 1.000000e+04
>>> limit_pref_f: 1.000000e+00
>>> check_step: 1000
>>> output_epoch: 10
>>> save_epoch: 10

Total number of frames:  9
Number of atoms aligned:  54
COORD_Reshape: shape =  (9, 162)
FORCE_Reshape: shape =  (9, 162)
TYPE_Reshape: shape =  (9, 54)
NEI_IDX_Reshape: shape =  (9, 29322)
NEI_COORD_Reshape: shape =  (9, 87966)
NEI_TYPE_Reshape: shape =  (263898,)
Data pre-processing complete. Building net work.

one_batch_net(
  (batch_norm): BatchNorm1d(54, eps=1e-05, momentum=0.1, affine=True, track_running_stats=True)
  (filter_input): ModuleList(
    (0): ModuleList(
      (0): Linear(in_features=1, out_features=72, bias=True)
      (1): Linear(in_features=1, out_features=72, bias=True)
    )
    (1): ModuleList(
      (0): Linear(in_features=1, out_features=72, bias=True)
      (1): Linear(in_features=1, out_features=72, bias=True)
    )
  )
  (filter_hidden): ModuleList(
    (0): ModuleList(
      (0): ModuleList(
        (0): Linear(in_features=72, out_features=103, bias=True)
        (1): Linear(in_features=103, out_features=52, bias=True)
      )
      (1): ModuleList(
        (0): Linear(in_features=72, out_features=103, bias=True)
        (1): Linear(in_features=103, out_features=52, bias=True)
      )
    )
    (1): ModuleList(
      (0): ModuleList(
        (0): Linear(in_features=72, out_features=103, bias=True)
        (1): Linear(in_features=103, out_features=52, bias=True)
      )
      (1): ModuleList(
        (0): Linear(in_features=72, out_features=103, bias=True)
        (1): Linear(in_features=103, out_features=52, bias=True)
      )
    )
  )
  (fitting_input): ModuleList(
    (0): Linear(in_features=260, out_features=243, bias=True)
    (1): Linear(in_features=260, out_features=243, bias=True)
  )
  (fitting_hidden): ModuleList(
    (0): ModuleList(
      (0): Linear(in_features=243, out_features=192, bias=True)
      (1): Linear(in_features=192, out_features=112, bias=True)
      (2): Linear(in_features=112, out_features=94, bias=True)
    )
    (1): ModuleList(
      (0): Linear(in_features=243, out_features=192, bias=True)
      (1): Linear(in_features=192, out_features=112, bias=True)
      (2): Linear(in_features=112, out_features=94, bias=True)
    )
  )
  (fitting_out): ModuleList(
    (0): Linear(in_features=94, out_features=1, bias=True)
    (1): Linear(in_features=94, out_features=1, bias=True)
  )
)
Number of parameters in the net: 337600
Start training using device:  cuda , count:  1
LR update: lr = 0.000500
Force check:
 tensor([[… device='cuda:0')
Additional parameters check:
 std:
 tensor([[[0.0645145021, 0.0393292851, 0.0393292851, 0.0393292851],
         [0.0748922479, 0.0471964893, 0.0471964893, 0.0471964893]]],
       device='cuda:0') 
avg:
…
