…
>>> (Not used)decay_steps: -1
>>> decay_epoch:  1
>>> decay_rate: 9.500000e-01
>>> start_pref_e: 1.000000e+00
>>> limit_pref_e: 1.000000e+00
>>> start_pref_f: 1.000000e+04
>>> limit_pref_f: 1.000000e+00
>>> check_step: 1000
>>> output_epoch: 10
>>> save_epoch: 10

Total number of frames:  1
Number of atoms aligned:  133
COORD_Reshape: shape =  (1, 399)
FORCE_Reshape: shape =  (1, 399)
TYPE_Reshape: shape =  (1, 133)
NEI_IDX_Reshape: shape =  (1, 70756)
NEI_COORD_Reshape: shape =  (1, 212268)
NEI_TYPE_Reshape: shape =  (70756,)
Data pre-processing complete. Building net work.

one_batch_net(
  (batch_norm): BatchNorm1d(133, eps=1e-05, momentum=0.1, affine=True, track_running_stats=True)
  (filter_input): ModuleList(
    (0): ModuleList(
      (0): Linear(in_features=1, out_features=29, bias=True)
      (1): Linear(in_features=1, out_features=29, bias=True)
    )
    (1): ModuleList(
      (0): Linear(in_features=1, out_features=29, bias=True)
      (1): Linear(in_features=1, out_features=29, bias=True)
    )
  )
  (filter_hidden): ModuleList(
    (0): ModuleList(
      (0): ModuleList(
        (0): Linear(in_features=29, out_features=47, bias=True)
        (1): Linear(in_features=47, out_features=104, bias=True)
      )
      (1): ModuleList(
        (0): Linear(in_features=29, out_features=47, bias=True)
        (1): Linear(in_features=47, out_features=104, bias=True)
      )
    )
    (1): ModuleList(
      (0): ModuleList(
        (0): Linear(in_features=29, out_features=47, bias=True)
        (1): Linear(in_features=47, out_features=104, bias=True)
      )
      (1): ModuleList(
        (0): Linear(in_features=29, out_features=47, bias=True)
        (1): Linear(in_features=47, out_features=104, bias=True)
      )
    )
  )
  (fitting_input): ModuleList(
    (0): Linear(in_features=312, out_features=245, bias=True)
    (1): Linear(in_features=312, out_features=245, bias=True)
  )
  (fitting_hidden): ModuleList(
    (0): ModuleList(
      (0): Linear(in_features=245, out_features=201, bias=True)
      (1): Linear(in_features=201, out_features=84, bias=True)
      (2): Linear(in_features=84, out_features=70, bias=True)
    )
    (1): ModuleList(
      (0): Linear(in_features=245, out_features=201, bias=True)
      (1): Linear(in_features=201, out_features=84, bias=True)
      (2): Linear(in_features=84, out_features=70, bias=True)
    )
  )
  (fitting_out): ModuleList(
    (0): Linear(in_features=70, out_features=1, bias=True)
    (1): Linear(in_features=70, out_features=1, bias=True)
  )
)
Number of parameters in the net: 324346
Start training using device:  cuda , count:  1
LR update: lr = 0.000500
Force check:
 tensor([[… device='cuda:0')
Additional parameters check:
 std:
 tensor([[[0.0682482702, 0.0417576421, 0.0417576421, 0.0417576421],
         [0.0746984462, 0.0469723052, 0.0469723052, 0.0469723052]]],
       device='cuda:0') 
avg:
…
