…
>>> (Not used)decay_steps: -1
>>> decay_epoch:  1
>>> decay_rate: 9.500000e-01
>>> start_pref_e: 1.000000e+00
>>> limit_pref_e: 1.000000e+00
>>> start_pref_f: 1.000000e+04
>>> limit_pref_f: 1.000000e+00
>>> check_step: 1000
>>> output_epoch: 10
>>> save_epoch: 10

Total number of frames:  2
Number of atoms aligned:  28
COORD_Reshape: shape =  (2, 84)
FORCE_Reshape: shape =  (2, 84)
TYPE_Reshape: shape =  (2, 28)
NEI_IDX_Reshape: shape =  (2, 16100)
NEI_COORD_Reshape: shape =  (2, 48300)
NEI_TYPE_Reshape: shape =  (32200,)
Data pre-processing complete. Building net work.

one_batch_net(
  (batch_norm): BatchNorm1d(28, eps=1e-05, momentum=0.1, affine=True, track_running_stats=True)
  (filter_input): ModuleList(
    (0): ModuleList(
      (0): Linear(in_features=1, out_features=116, bias=True)
      (1): Linear(in_features=1, out_features=116, bias=True)
    )
    (1): ModuleList(
      (0): Linear(in_features=1, out_features=116, bias=True)
      (1): Linear(in_features=1, out_features=116, bias=True)
    )
  )
  (filter_hidden): ModuleList(
    (0): ModuleList(
      (0): ModuleList(
        (0): Linear(in_features=116, out_features=114, bias=True)
        (1): Linear(in_features=114, out_features=58, bias=True)
      )
      (1): ModuleList(
        (0): Linear(in_features=116, out_features=114, bias=True)
        (1): Linear(in_features=114, out_features=58, bias=True)
      )
    )
    (1): ModuleList(
      (0): ModuleList(
        (0): Linear(in_features=116, out_features=114, bias=True)
        (1): Linear(in_features=114, out_features=58, bias=True)
      )
      (1): ModuleList(
        (0): Linear(in_features=116, out_features=114, bias=True)
        (1): Linear(in_features=114, out_features=58, bias=True)
      )
    )
  )
  (fitting_input): ModuleList(
    (0): Linear(in_features=232, out_features=280, bias=True)
    (1): Linear(in_features=232, out_features=280, bias=True)
  )
  (fitting_hidden): ModuleList(
    (0): ModuleList(
      (0): Linear(in_features=280, out_features=205, bias=True)
      (1): Linear(in_features=205, out_features=93, bias=True)
      (2): Linear(in_features=93, out_features=70, bias=True)
    )
    (1): ModuleList(
      (0): Linear(in_features=280, out_features=205, bias=True)
      (1): Linear(in_features=205, out_features=93, bias=True)
      (2): Linear(in_features=93, out_features=70, bias=True)
    )
  )
  (fitting_out): ModuleList(
    (0): Linear(in_features=70, out_features=1, bias=True)
    (1): Linear(in_features=70, out_features=1, bias=True)
  )
)
Number of parameters in the net: 378324
Start training using device:  cuda , count:  1
LR update: lr = 0.000500
Force check:
 tensor([[ … device='cuda:0')
Additional parameters check:
 std:
 tensor([[[0.0705757621, 0.0435204831, 0.0435204831, 0.0435204831],
         [0.0733648495, 0.0458398530, 0.0458398530, 0.0458398530]]],
       device='cuda:0') 
…
