…
>>> (Not used)decay_steps: -1
>>> decay_epoch:  1
>>> decay_rate: 9.500000e-01
>>> start_pref_e: 1.000000e+00
>>> limit_pref_e: 1.000000e+00
>>> start_pref_f: 1.000000e+04
>>> limit_pref_f: 1.000000e+00
>>> check_step: 1000
>>> output_epoch: 10
>>> save_epoch: 10

Total number of frames:  1
Number of atoms aligned:  28
COORD_Reshape: shape =  (1, 84)
FORCE_Reshape: shape =  (1, 84)
TYPE_Reshape: shape =  (1, 28)
NEI_IDX_Reshape: shape =  (1, 15484)
NEI_COORD_Reshape: shape =  (1, 46452)
NEI_TYPE_Reshape: shape =  (15484,)
Data pre-processing complete. Building net work.

one_batch_net(
  (batch_norm): BatchNorm1d(28, eps=1e-05, momentum=0.1, affine=True, track_running_stats=True)
  (filter_input): ModuleList(
    (0): ModuleList(
      (0): Linear(in_features=1, out_features=133, bias=True)
      (1): Linear(in_features=1, out_features=133, bias=True)
    )
    (1): ModuleList(
      (0): Linear(in_features=1, out_features=133, bias=True)
      (1): Linear(in_features=1, out_features=133, bias=True)
    )
  )
  (filter_hidden): ModuleList(
    (0): ModuleList(
      (0): ModuleList(
        (0): Linear(in_features=133, out_features=94, bias=True)
        (1): Linear(in_features=94, out_features=128, bias=True)
      )
      (1): ModuleList(
        (0): Linear(in_features=133, out_features=94, bias=True)
        (1): Linear(in_features=94, out_features=128, bias=True)
      )
    )
    (1): ModuleList(
      (0): ModuleList(
        (0): Linear(in_features=133, out_features=94, bias=True)
        (1): Linear(in_features=94, out_features=128, bias=True)
      )
      (1): ModuleList(
        (0): Linear(in_features=133, out_features=94, bias=True)
        (1): Linear(in_features=94, out_features=128, bias=True)
      )
    )
  )
  (fitting_input): ModuleList(
    (0): Linear(in_features=2048, out_features=300, bias=True)
    (1): Linear(in_features=2048, out_features=300, bias=True)
  )
  (fitting_hidden): ModuleList(
    (0): ModuleList(
      (0): Linear(in_features=300, out_features=132, bias=True)
      (1): Linear(in_features=132, out_features=87, bias=True)
      (2): Linear(in_features=87, out_features=93, bias=True)
    )
    (1): ModuleList(
      (0): Linear(in_features=300, out_features=132, bias=True)
      (1): Linear(in_features=132, out_features=87, bias=True)
      (2): Linear(in_features=87, out_features=93, bias=True)
    )
  )
  (fitting_out): ModuleList(
    (0): Linear(in_features=93, out_features=1, bias=True)
    (1): Linear(in_features=93, out_features=1, bias=True)
  )
)
Number of parameters in the net: 1448706
Start training using device:  cuda , count:  1
LR update: lr = 0.000500
Force check:
 tensor([[… device='cuda:0')
Additional parameters check:
 std:
 tensor([[[0.0683754595, 0.0419316028, 0.0419316028, 0.0419316028],
         [0.0715515580, 0.0445709004, 0.0445709004, 0.0445709004]]],
       device='cuda:0') 
…
