…
>>> (Not used)decay_steps: -1
>>> decay_epoch:  1
>>> decay_rate: 9.500000e-01
>>> start_pref_e: 1.000000e+00
>>> limit_pref_e: 1.000000e+00
>>> start_pref_f: 1.000000e+04
>>> limit_pref_f: 1.000000e+00
>>> check_step: 1000
>>> output_epoch: 10
>>> save_epoch: 10

Total number of frames:  8
Number of atoms aligned:  38
COORD_Reshape: shape =  (8, 114)
FORCE_Reshape: shape =  (8, 114)
TYPE_Reshape: shape =  (8, 38)
NEI_IDX_Reshape: shape =  (8, 19646)
NEI_COORD_Reshape: shape =  (8, 58938)
NEI_TYPE_Reshape: shape =  (157168,)
Data pre-processing complete. Building net work.

one_batch_net(
  (batch_norm): BatchNorm1d(38, eps=1e-05, momentum=0.1, affine=True, track_running_stats=True)
  (filter_input): ModuleList(
    (0): ModuleList(
      (0): Linear(in_features=1, out_features=127, bias=True)
      (1): Linear(in_features=1, out_features=127, bias=True)
    )
    (1): ModuleList(
      (0): Linear(in_features=1, out_features=127, bias=True)
      (1): Linear(in_features=1, out_features=127, bias=True)
    )
  )
  (filter_hidden): ModuleList(
    (0): ModuleList(
      (0): ModuleList(
        (0): Linear(in_features=127, out_features=114, bias=True)
        (1): Linear(in_features=114, out_features=72, bias=True)
      )
      (1): ModuleList(
        (0): Linear(in_features=127, out_features=114, bias=True)
        (1): Linear(in_features=114, out_features=72, bias=True)
      )
    )
    (1): ModuleList(
      (0): ModuleList(
        (0): Linear(in_features=127, out_features=114, bias=True)
        (1): Linear(in_features=114, out_features=72, bias=True)
      )
      (1): ModuleList(
        (0): Linear(in_features=127, out_features=114, bias=True)
        (1): Linear(in_features=114, out_features=72, bias=True)
      )
    )
  )
  (fitting_input): ModuleList(
    (0): Linear(in_features=144, out_features=290, bias=True)
    (1): Linear(in_features=144, out_features=290, bias=True)
  )
  (fitting_hidden): ModuleList(
    (0): ModuleList(
      (0): Linear(in_features=290, out_features=171, bias=True)
      (1): Linear(in_features=171, out_features=106, bias=True)
      (2): Linear(in_features=106, out_features=25, bias=True)
    )
    (1): ModuleList(
      (0): Linear(in_features=290, out_features=171, bias=True)
      (1): Linear(in_features=171, out_features=106, bias=True)
      (2): Linear(in_features=106, out_features=25, bias=True)
    )
  )
  (fitting_out): ModuleList(
    (0): Linear(in_features=25, out_features=1, bias=True)
    (1): Linear(in_features=25, out_features=1, bias=True)
  )
)
Number of parameters in the net: 318068
Start training using device:  cuda , count:  1
LR update: lr = 0.000500
Force check:
 tensor([[… device='cuda:0')
Additional parameters check:
 std:
 tensor([[[0.0633351749, 0.0385565546, 0.0385565546, 0.0385565546],
         [0.0739550134, 0.0462193914, 0.0462193914, 0.0462193914]]],
       device='cuda:0') 
avg:
…
