…
>>> (Not used)decay_steps: -1
>>> decay_epoch:  1
>>> decay_rate: 9.500000e-01
>>> start_pref_e: 1.000000e+00
>>> limit_pref_e: 1.000000e+00
>>> start_pref_f: 1.000000e+04
>>> limit_pref_f: 1.000000e+00
>>> check_step: 1000
>>> output_epoch: 10
>>> save_epoch: 10

Total number of frames:  5
Number of atoms aligned:  136
COORD_Reshape: shape =  (5, 408)
FORCE_Reshape: shape =  (5, 408)
TYPE_Reshape: shape =  (5, 136)
NEI_IDX_Reshape: shape =  (5, 73304)
NEI_COORD_Reshape: shape =  (5, 219912)
NEI_TYPE_Reshape: shape =  (366520,)
Data pre-processing complete. Building net work.

one_batch_net(
  (batch_norm): BatchNorm1d(136, eps=1e-05, momentum=0.1, affine=True, track_running_stats=True)
  (filter_input): ModuleList(
    (0): ModuleList(
      (0): Linear(in_features=1, out_features=143, bias=True)
      (1): Linear(in_features=1, out_features=143, bias=True)
    )
    (1): ModuleList(
      (0): Linear(in_features=1, out_features=143, bias=True)
      (1): Linear(in_features=1, out_features=143, bias=True)
    )
  )
  (filter_hidden): ModuleList(
    (0): ModuleList(
      (0): ModuleList(
        (0): Linear(in_features=143, out_features=94, bias=True)
        (1): Linear(in_features=94, out_features=45, bias=True)
      )
      (1): ModuleList(
        (0): Linear(in_features=143, out_features=94, bias=True)
        (1): Linear(in_features=94, out_features=45, bias=True)
      )
    )
    (1): ModuleList(
      (0): ModuleList(
        (0): Linear(in_features=143, out_features=94, bias=True)
        (1): Linear(in_features=94, out_features=45, bias=True)
      )
      (1): ModuleList(
        (0): Linear(in_features=143, out_features=94, bias=True)
        (1): Linear(in_features=94, out_features=45, bias=True)
      )
    )
  )
  (fitting_input): ModuleList(
    (0): Linear(in_features=585, out_features=281, bias=True)
    (1): Linear(in_features=585, out_features=281, bias=True)
  )
  (fitting_hidden): ModuleList(
    (0): ModuleList(
      (0): Linear(in_features=281, out_features=224, bias=True)
      (1): Linear(in_features=224, out_features=85, bias=True)
      (2): Linear(in_features=85, out_features=83, bias=True)
    )
    (1): ModuleList(
      (0): Linear(in_features=281, out_features=224, bias=True)
      (1): Linear(in_features=224, out_features=85, bias=True)
      (2): Linear(in_features=85, out_features=83, bias=True)
    )
  )
  (fitting_out): ModuleList(
    (0): Linear(in_features=83, out_features=1, bias=True)
    (1): Linear(in_features=83, out_features=1, bias=True)
  )
)
Number of parameters in the net: 581022
Start training using device:  cuda , count:  1
LR update: lr = 0.000500
Force check:
 tensor([[ … device='cuda:0')
Additional parameters check:
 std:
 tensor([[[0.0706683006, 0.0434215352, 0.0434215352, 0.0434215352],
         [0.0737780368, 0.0462476817, 0.0462476817, 0.0462476817]]],
       device='cuda:0') 
…
