…
>>> (Not used)decay_steps: -1
>>> decay_epoch:  1
>>> decay_rate: 9.500000e-01
>>> start_pref_e: 1.000000e+00
>>> limit_pref_e: 1.000000e+00
>>> start_pref_f: 1.000000e+04
>>> limit_pref_f: 1.000000e+00
>>> check_step: 1000
>>> output_epoch: 10
>>> save_epoch: 10

Total number of frames:  7
Number of atoms aligned:  50
COORD_Reshape: shape =  (7, 150)
FORCE_Reshape: shape =  (7, 150)
TYPE_Reshape: shape =  (7, 50)
NEI_IDX_Reshape: shape =  (7, 28650)
NEI_COORD_Reshape: shape =  (7, 85950)
NEI_TYPE_Reshape: shape =  (200550,)
Data pre-processing complete. Building net work.

one_batch_net(
  (batch_norm): BatchNorm1d(50, eps=1e-05, momentum=0.1, affine=True, track_running_stats=True)
  (filter_input): ModuleList(
    (0): ModuleList(
      (0): Linear(in_features=1, out_features=92, bias=True)
      (1): Linear(in_features=1, out_features=92, bias=True)
    )
    (1): ModuleList(
      (0): Linear(in_features=1, out_features=92, bias=True)
      (1): Linear(in_features=1, out_features=92, bias=True)
    )
  )
  (filter_hidden): ModuleList(
    (0): ModuleList(
      (0): ModuleList(
        (0): Linear(in_features=92, out_features=57, bias=True)
        (1): Linear(in_features=57, out_features=148, bias=True)
      )
      (1): ModuleList(
        (0): Linear(in_features=92, out_features=57, bias=True)
        (1): Linear(in_features=57, out_features=148, bias=True)
      )
    )
    (1): ModuleList(
      (0): ModuleList(
        (0): Linear(in_features=92, out_features=57, bias=True)
        (1): Linear(in_features=57, out_features=148, bias=True)
      )
      (1): ModuleList(
        (0): Linear(in_features=92, out_features=57, bias=True)
        (1): Linear(in_features=57, out_features=148, bias=True)
      )
    )
  )
  (fitting_input): ModuleList(
    (0): Linear(in_features=2220, out_features=224, bias=True)
    (1): Linear(in_features=2220, out_features=224, bias=True)
  )
  (fitting_hidden): ModuleList(
    (0): ModuleList(
      (0): Linear(in_features=224, out_features=222, bias=True)
      (1): Linear(in_features=222, out_features=142, bias=True)
      (2): Linear(in_features=142, out_features=98, bias=True)
    )
    (1): ModuleList(
      (0): Linear(in_features=224, out_features=222, bias=True)
      (1): Linear(in_features=222, out_features=142, bias=True)
      (2): Linear(in_features=142, out_features=98, bias=True)
    )
  )
  (fitting_out): ModuleList(
    (0): Linear(in_features=98, out_features=1, bias=True)
    (1): Linear(in_features=98, out_features=1, bias=True)
  )
)
Number of parameters in the net: 1242842
Start training using device:  cuda , count:  1
LR update: lr = 0.000500
Force check:
 tensor([[ … device='cuda:0')
Additional parameters check:
 std:
 tensor([[[0.0637291700, 0.0386807425, 0.0386807425, 0.0386807425],
         [0.0727341404, 0.0454784154, 0.0454784154, 0.0454784154]]],
       device='cuda:0') 
…
