…
>>> (Not used)decay_steps: -1
>>> decay_epoch:  1
>>> decay_rate: 9.500000e-01
>>> start_pref_e: 1.000000e+00
>>> limit_pref_e: 1.000000e+00
>>> start_pref_f: 1.000000e+04
>>> limit_pref_f: 1.000000e+00
>>> check_step: 1000
>>> output_epoch: 10
>>> save_epoch: 10

Total number of frames:  5
Number of atoms aligned:  16
COORD_Reshape: shape =  (5, 48)
FORCE_Reshape: shape =  (5, 48)
TYPE_Reshape: shape =  (5, 16)
NEI_IDX_Reshape: shape =  (5, 5024)
NEI_COORD_Reshape: shape =  (5, 15072)
NEI_TYPE_Reshape: shape =  (25120,)
Data pre-processing complete. Building net work.

one_batch_net(
  (batch_norm): BatchNorm1d(16, eps=1e-05, momentum=0.1, affine=True, track_running_stats=True)
  (filter_input): ModuleList(
    (0): ModuleList(
      (0): Linear(in_features=1, out_features=106, bias=True)
      (1): Linear(in_features=1, out_features=106, bias=True)
    )
    (1): ModuleList(
      (0): Linear(in_features=1, out_features=106, bias=True)
      (1): Linear(in_features=1, out_features=106, bias=True)
    )
  )
  (filter_hidden): ModuleList(
    (0): ModuleList(
      (0): ModuleList(
        (0): Linear(in_features=106, out_features=66, bias=True)
        (1): Linear(in_features=66, out_features=57, bias=True)
      )
      (1): ModuleList(
        (0): Linear(in_features=106, out_features=66, bias=True)
        (1): Linear(in_features=66, out_features=57, bias=True)
      )
    )
    (1): ModuleList(
      (0): ModuleList(
        (0): Linear(in_features=106, out_features=66, bias=True)
        (1): Linear(in_features=66, out_features=57, bias=True)
      )
      (1): ModuleList(
        (0): Linear(in_features=106, out_features=66, bias=True)
        (1): Linear(in_features=66, out_features=57, bias=True)
      )
    )
  )
  (fitting_input): ModuleList(
    (0): Linear(in_features=171, out_features=230, bias=True)
    (1): Linear(in_features=171, out_features=230, bias=True)
  )
  (fitting_hidden): ModuleList(
    (0): ModuleList(
      (0): Linear(in_features=230, out_features=220, bias=True)
      (1): Linear(in_features=220, out_features=117, bias=True)
      (2): Linear(in_features=117, out_features=91, bias=True)
    )
    (1): ModuleList(
      (0): Linear(in_features=230, out_features=220, bias=True)
      (1): Linear(in_features=220, out_features=117, bias=True)
      (2): Linear(in_features=117, out_features=91, bias=True)
    )
  )
  (fitting_out): ModuleList(
    (0): Linear(in_features=91, out_features=1, bias=True)
    (1): Linear(in_features=91, out_features=1, bias=True)
  )
)
Number of parameters in the net: 298538
Start training using device:  cuda , count:  1
LR update: lr = 0.000500
Force check:
 tensor([[ … device='cuda:0')
Additional parameters check:
 std:
 tensor([[[0.0787494605, 0.0487278497, 0.0487278497, 0.0487278497],
         [0.0747274838, 0.0462697329, 0.0462697329, 0.0462697329]]],
       device='cuda:0') 
…
