…
>>> (Not used)decay_steps: -1
>>> decay_epoch:  1
>>> decay_rate: 9.500000e-01
>>> start_pref_e: 1.000000e+00
>>> limit_pref_e: 1.000000e+00
>>> start_pref_f: 1.000000e+04
>>> limit_pref_f: 1.000000e+00
>>> check_step: 1000
>>> output_epoch: 10
>>> save_epoch: 10

Total number of frames:  4
Number of atoms aligned:  47
COORD_Reshape: shape =  (4, 141)
FORCE_Reshape: shape =  (4, 141)
TYPE_Reshape: shape =  (4, 47)
NEI_IDX_Reshape: shape =  (4, 27025)
NEI_COORD_Reshape: shape =  (4, 81075)
NEI_TYPE_Reshape: shape =  (108100,)
Data pre-processing complete. Building net work.

one_batch_net(
  (batch_norm): BatchNorm1d(47, eps=1e-05, momentum=0.1, affine=True, track_running_stats=True)
  (filter_input): ModuleList(
    (0): ModuleList(
      (0): Linear(in_features=1, out_features=64, bias=True)
      (1): Linear(in_features=1, out_features=64, bias=True)
    )
    (1): ModuleList(
      (0): Linear(in_features=1, out_features=64, bias=True)
      (1): Linear(in_features=1, out_features=64, bias=True)
    )
  )
  (filter_hidden): ModuleList(
    (0): ModuleList(
      (0): ModuleList(
        (0): Linear(in_features=64, out_features=66, bias=True)
        (1): Linear(in_features=66, out_features=32, bias=True)
      )
      (1): ModuleList(
        (0): Linear(in_features=64, out_features=66, bias=True)
        (1): Linear(in_features=66, out_features=32, bias=True)
      )
    )
    (1): ModuleList(
      (0): ModuleList(
        (0): Linear(in_features=64, out_features=66, bias=True)
        (1): Linear(in_features=66, out_features=32, bias=True)
      )
      (1): ModuleList(
        (0): Linear(in_features=64, out_features=66, bias=True)
        (1): Linear(in_features=66, out_features=32, bias=True)
      )
    )
  )
  (fitting_input): ModuleList(
    (0): Linear(in_features=160, out_features=297, bias=True)
    (1): Linear(in_features=160, out_features=297, bias=True)
  )
  (fitting_hidden): ModuleList(
    (0): ModuleList(
      (0): Linear(in_features=297, out_features=238, bias=True)
      (1): Linear(in_features=238, out_features=125, bias=True)
      (2): Linear(in_features=125, out_features=40, bias=True)
    )
    (1): ModuleList(
      (0): Linear(in_features=297, out_features=238, bias=True)
      (1): Linear(in_features=238, out_features=125, bias=True)
      (2): Linear(in_features=125, out_features=40, bias=True)
    )
  )
  (fitting_out): ModuleList(
    (0): Linear(in_features=40, out_features=1, bias=True)
    (1): Linear(in_features=40, out_features=1, bias=True)
  )
)
Number of parameters in the net: 333736
Start training using device:  cuda , count:  1
LR update: lr = 0.000500
Force check:
 tensor([[ … device='cuda:0')
Additional parameters check:
 std:
 tensor([[[0.0656331476, 0.0399566198, 0.0399566198, 0.0399566198],
         [0.0728944964, 0.0455357023, 0.0455357023, 0.0455357023]]],
       device='cuda:0') 
…
