…
>>> (Not used)decay_steps: -1
>>> decay_epoch:  1
>>> decay_rate: 9.500000e-01
>>> start_pref_e: 1.000000e+00
>>> limit_pref_e: 1.000000e+00
>>> start_pref_f: 1.000000e+04
>>> limit_pref_f: 1.000000e+00
>>> check_step: 1000
>>> output_epoch: 10
>>> save_epoch: 10

Total number of frames:  2
Number of atoms aligned:  46
COORD_Reshape: shape =  (2, 138)
FORCE_Reshape: shape =  (2, 138)
TYPE_Reshape: shape =  (2, 46)
NEI_IDX_Reshape: shape =  (2, 14168)
NEI_COORD_Reshape: shape =  (2, 42504)
NEI_TYPE_Reshape: shape =  (28336,)
Data pre-processing complete. Building net work.

one_batch_net(
  (batch_norm): BatchNorm1d(46, eps=1e-05, momentum=0.1, affine=True, track_running_stats=True)
  (filter_input): ModuleList(
    (0): ModuleList(
      (0): Linear(in_features=1, out_features=120, bias=True)
      (1): Linear(in_features=1, out_features=120, bias=True)
    )
    (1): ModuleList(
      (0): Linear(in_features=1, out_features=120, bias=True)
      (1): Linear(in_features=1, out_features=120, bias=True)
    )
  )
  (filter_hidden): ModuleList(
    (0): ModuleList(
      (0): ModuleList(
        (0): Linear(in_features=120, out_features=64, bias=True)
        (1): Linear(in_features=64, out_features=103, bias=True)
      )
      (1): ModuleList(
        (0): Linear(in_features=120, out_features=64, bias=True)
        (1): Linear(in_features=64, out_features=103, bias=True)
      )
    )
    (1): ModuleList(
      (0): ModuleList(
        (0): Linear(in_features=120, out_features=64, bias=True)
        (1): Linear(in_features=64, out_features=103, bias=True)
      )
      (1): ModuleList(
        (0): Linear(in_features=120, out_features=64, bias=True)
        (1): Linear(in_features=64, out_features=103, bias=True)
      )
    )
  )
  (fitting_input): ModuleList(
    (0): Linear(in_features=103, out_features=268, bias=True)
    (1): Linear(in_features=103, out_features=268, bias=True)
  )
  (fitting_hidden): ModuleList(
    (0): ModuleList(
      (0): Linear(in_features=268, out_features=206, bias=True)
      (1): Linear(in_features=206, out_features=116, bias=True)
      (2): Linear(in_features=116, out_features=65, bias=True)
    )
    (1): ModuleList(
      (0): Linear(in_features=268, out_features=206, bias=True)
      (1): Linear(in_features=206, out_features=116, bias=True)
      (2): Linear(in_features=116, out_features=65, bias=True)
    )
  )
  (fitting_out): ModuleList(
    (0): Linear(in_features=65, out_features=1, bias=True)
    (1): Linear(in_features=65, out_features=1, bias=True)
  )
)
Number of parameters in the net: 288746
Start training using device:  cuda , count:  1
LR update: lr = 0.000500
Force check:
 tensor([[ … device='cuda:0')
Additional parameters check:
 std:
 tensor([[[0.0863894742, 0.0555285614, 0.0555285614, 0.0555285614],
         [0.0879233537, 0.0575689555, 0.0575689555, 0.0575689555]]],
       device='cuda:0') 
…
