…
>>> (Not used)decay_steps: -1
>>> decay_epoch:  1
>>> decay_rate: 9.500000e-01
>>> start_pref_e: 1.000000e+00
>>> limit_pref_e: 1.000000e+00
>>> start_pref_f: 1.000000e+04
>>> limit_pref_f: 1.000000e+00
>>> check_step: 1000
>>> output_epoch: 10
>>> save_epoch: 10

Total number of frames:  7
Number of atoms aligned:  16
COORD_Reshape: shape =  (7, 48)
FORCE_Reshape: shape =  (7, 48)
TYPE_Reshape: shape =  (7, 16)
NEI_IDX_Reshape: shape =  (7, 8496)
NEI_COORD_Reshape: shape =  (7, 25488)
NEI_TYPE_Reshape: shape =  (59472,)
Data pre-processing complete. Building net work.

one_batch_net(
  (batch_norm): BatchNorm1d(16, eps=1e-05, momentum=0.1, affine=True, track_running_stats=True)
  (filter_input): ModuleList(
    (0): ModuleList(
      (0): Linear(in_features=1, out_features=89, bias=True)
      (1): Linear(in_features=1, out_features=89, bias=True)
    )
    (1): ModuleList(
      (0): Linear(in_features=1, out_features=89, bias=True)
      (1): Linear(in_features=1, out_features=89, bias=True)
    )
  )
  (filter_hidden): ModuleList(
    (0): ModuleList(
      (0): ModuleList(
        (0): Linear(in_features=89, out_features=117, bias=True)
        (1): Linear(in_features=117, out_features=128, bias=True)
      )
      (1): ModuleList(
        (0): Linear(in_features=89, out_features=117, bias=True)
        (1): Linear(in_features=117, out_features=128, bias=True)
      )
    )
    (1): ModuleList(
      (0): ModuleList(
        (0): Linear(in_features=89, out_features=117, bias=True)
        (1): Linear(in_features=117, out_features=128, bias=True)
      )
      (1): ModuleList(
        (0): Linear(in_features=89, out_features=117, bias=True)
        (1): Linear(in_features=117, out_features=128, bias=True)
      )
    )
  )
  (fitting_input): ModuleList(
    (0): Linear(in_features=1792, out_features=253, bias=True)
    (1): Linear(in_features=1792, out_features=253, bias=True)
  )
  (fitting_hidden): ModuleList(
    (0): ModuleList(
      (0): Linear(in_features=253, out_features=148, bias=True)
      (1): Linear(in_features=148, out_features=144, bias=True)
      (2): Linear(in_features=144, out_features=56, bias=True)
    )
    (1): ModuleList(
      (0): Linear(in_features=253, out_features=148, bias=True)
      (1): Linear(in_features=148, out_features=144, bias=True)
      (2): Linear(in_features=144, out_features=56, bias=True)
    )
  )
  (fitting_out): ModuleList(
    (0): Linear(in_features=56, out_features=1, bias=True)
    (1): Linear(in_features=56, out_features=1, bias=True)
  )
)
Number of parameters in the net: 1144988
Start training using device:  cuda , count:  1
LR update: lr = 0.000500
Force check:
 tensor([[ … device='cuda:0')
Additional parameters check:
 std:
 tensor([[[0.0733911309, 0.0457061609, 0.0457061609, 0.0457061609],
         [0.0732406760, 0.0456829083, 0.0456829083, 0.0456829083]]],
       device='cuda:0') 
…
