…
>>> (Not used)decay_steps: -1
>>> decay_epoch:  1
>>> decay_rate: 9.500000e-01
>>> start_pref_e: 1.000000e+00
>>> limit_pref_e: 1.000000e+00
>>> start_pref_f: 1.000000e+04
>>> limit_pref_f: 1.000000e+00
>>> check_step: 1000
>>> output_epoch: 10
>>> save_epoch: 10

Total number of frames:  2
Number of atoms aligned:  138
COORD_Reshape: shape =  (2, 414)
FORCE_Reshape: shape =  (2, 414)
TYPE_Reshape: shape =  (2, 138)
NEI_IDX_Reshape: shape =  (2, 75348)
NEI_COORD_Reshape: shape =  (2, 226044)
NEI_TYPE_Reshape: shape =  (150696,)
Data pre-processing complete. Building net work.

one_batch_net(
  (batch_norm): BatchNorm1d(138, eps=1e-05, momentum=0.1, affine=True, track_running_stats=True)
  (filter_input): ModuleList(
    (0): ModuleList(
      (0): Linear(in_features=1, out_features=33, bias=True)
      (1): Linear(in_features=1, out_features=33, bias=True)
    )
    (1): ModuleList(
      (0): Linear(in_features=1, out_features=33, bias=True)
      (1): Linear(in_features=1, out_features=33, bias=True)
    )
  )
  (filter_hidden): ModuleList(
    (0): ModuleList(
      (0): ModuleList(
        (0): Linear(in_features=33, out_features=87, bias=True)
        (1): Linear(in_features=87, out_features=87, bias=True)
      )
      (1): ModuleList(
        (0): Linear(in_features=33, out_features=87, bias=True)
        (1): Linear(in_features=87, out_features=87, bias=True)
      )
    )
    (1): ModuleList(
      (0): ModuleList(
        (0): Linear(in_features=33, out_features=87, bias=True)
        (1): Linear(in_features=87, out_features=87, bias=True)
      )
      (1): ModuleList(
        (0): Linear(in_features=33, out_features=87, bias=True)
        (1): Linear(in_features=87, out_features=87, bias=True)
      )
    )
  )
  (fitting_input): ModuleList(
    (0): Linear(in_features=87, out_features=267, bias=True)
    (1): Linear(in_features=87, out_features=267, bias=True)
  )
  (fitting_hidden): ModuleList(
    (0): ModuleList(
      (0): Linear(in_features=267, out_features=246, bias=True)
      (1): Linear(in_features=246, out_features=105, bias=True)
      (2): Linear(in_features=105, out_features=95, bias=True)
    )
    (1): ModuleList(
      (0): Linear(in_features=267, out_features=246, bias=True)
      (1): Linear(in_features=246, out_features=105, bias=True)
      (2): Linear(in_features=105, out_features=95, bias=True)
    )
  )
  (fitting_out): ModuleList(
    (0): Linear(in_features=95, out_features=1, bias=True)
    (1): Linear(in_features=95, out_features=1, bias=True)
  )
)
Number of parameters in the net: 294046
Start training using device:  cuda , count:  1
LR update: lr = 0.000500
Force check:
 tensor([[ … device='cuda:0')
Additional parameters check:
 std:
 tensor([[[0.0691210327, 0.0423277601, 0.0423277601, 0.0423277601],
         [0.0742130868, 0.0465702547, 0.0465702547, 0.0465702547]]],
       device='cuda:0') 
…
