…
>>> (Not used)decay_steps: -1
>>> decay_epoch:  1
>>> decay_rate: 9.500000e-01
>>> start_pref_e: 1.000000e+00
>>> limit_pref_e: 1.000000e+00
>>> start_pref_f: 1.000000e+04
>>> limit_pref_f: 1.000000e+00
>>> check_step: 1000
>>> output_epoch: 10
>>> save_epoch: 10

Total number of frames:  3
Number of atoms aligned:  72
COORD_Reshape: shape =  (3, 216)
FORCE_Reshape: shape =  (3, 216)
TYPE_Reshape: shape =  (3, 72)
NEI_IDX_Reshape: shape =  (3, 38304)
NEI_COORD_Reshape: shape =  (3, 114912)
NEI_TYPE_Reshape: shape =  (114912,)
Data pre-processing complete. Building net work.

one_batch_net(
  (batch_norm): BatchNorm1d(72, eps=1e-05, momentum=0.1, affine=True, track_running_stats=True)
  (filter_input): ModuleList(
    (0): ModuleList(
      (0): Linear(in_features=1, out_features=130, bias=True)
      (1): Linear(in_features=1, out_features=130, bias=True)
    )
    (1): ModuleList(
      (0): Linear(in_features=1, out_features=130, bias=True)
      (1): Linear(in_features=1, out_features=130, bias=True)
    )
  )
  (filter_hidden): ModuleList(
    (0): ModuleList(
      (0): ModuleList(
        (0): Linear(in_features=130, out_features=36, bias=True)
        (1): Linear(in_features=36, out_features=57, bias=True)
      )
      (1): ModuleList(
        (0): Linear(in_features=130, out_features=36, bias=True)
        (1): Linear(in_features=36, out_features=57, bias=True)
      )
    )
    (1): ModuleList(
      (0): ModuleList(
        (0): Linear(in_features=130, out_features=36, bias=True)
        (1): Linear(in_features=36, out_features=57, bias=True)
      )
      (1): ModuleList(
        (0): Linear(in_features=130, out_features=36, bias=True)
        (1): Linear(in_features=36, out_features=57, bias=True)
      )
    )
  )
  (fitting_input): ModuleList(
    (0): Linear(in_features=57, out_features=253, bias=True)
    (1): Linear(in_features=57, out_features=253, bias=True)
  )
  (fitting_hidden): ModuleList(
    (0): ModuleList(
      (0): Linear(in_features=253, out_features=233, bias=True)
      (1): Linear(in_features=233, out_features=113, bias=True)
      (2): Linear(in_features=113, out_features=68, bias=True)
    )
    (1): ModuleList(
      (0): Linear(in_features=253, out_features=233, bias=True)
      (1): Linear(in_features=233, out_features=113, bias=True)
      (2): Linear(in_features=113, out_features=68, bias=True)
    )
  )
  (fitting_out): ModuleList(
    (0): Linear(in_features=68, out_features=1, bias=True)
    (1): Linear(in_features=68, out_features=1, bias=True)
  )
)
Number of parameters in the net: 244722
Start training using device:  cuda , count:  1
LR update: lr = 0.000500
Force check:
 tensor([[ … device='cuda:0')
Additional parameters check:
 std:
 tensor([[[0.0749403273, 0.0466579339, 0.0466579339, 0.0466579339],
         [0.0766395523, 0.0484783949, 0.0484783949, 0.0484783949]]],
       device='cuda:0') 
…
