…
>>> (Not used)decay_steps: -1
>>> decay_epoch:  1
>>> decay_rate: 9.500000e-01
>>> start_pref_e: 1.000000e+00
>>> limit_pref_e: 1.000000e+00
>>> start_pref_f: 1.000000e+04
>>> limit_pref_f: 1.000000e+00
>>> check_step: 1000
>>> output_epoch: 10
>>> save_epoch: 10

Total number of frames:  1
Number of atoms aligned:  16
COORD_Reshape: shape =  (1, 48)
FORCE_Reshape: shape =  (1, 48)
TYPE_Reshape: shape =  (1, 16)
NEI_IDX_Reshape: shape =  (1, 4816)
NEI_COORD_Reshape: shape =  (1, 14448)
NEI_TYPE_Reshape: shape =  (4816,)
Data pre-processing complete. Building net work.

one_batch_net(
  (batch_norm): BatchNorm1d(16, eps=1e-05, momentum=0.1, affine=True, track_running_stats=True)
  (filter_input): ModuleList(
    (0): ModuleList(
      (0): Linear(in_features=1, out_features=46, bias=True)
      (1): Linear(in_features=1, out_features=46, bias=True)
    )
    (1): ModuleList(
      (0): Linear(in_features=1, out_features=46, bias=True)
      (1): Linear(in_features=1, out_features=46, bias=True)
    )
  )
  (filter_hidden): ModuleList(
    (0): ModuleList(
      (0): ModuleList(
        (0): Linear(in_features=46, out_features=87, bias=True)
        (1): Linear(in_features=87, out_features=29, bias=True)
      )
      (1): ModuleList(
        (0): Linear(in_features=46, out_features=87, bias=True)
        (1): Linear(in_features=87, out_features=29, bias=True)
      )
    )
    (1): ModuleList(
      (0): ModuleList(
        (0): Linear(in_features=46, out_features=87, bias=True)
        (1): Linear(in_features=87, out_features=29, bias=True)
      )
      (1): ModuleList(
        (0): Linear(in_features=46, out_features=87, bias=True)
        (1): Linear(in_features=87, out_features=29, bias=True)
      )
    )
  )
  (fitting_input): ModuleList(
    (0): Linear(in_features=377, out_features=278, bias=True)
    (1): Linear(in_features=377, out_features=278, bias=True)
  )
  (fitting_hidden): ModuleList(
    (0): ModuleList(
      (0): Linear(in_features=278, out_features=112, bias=True)
      (1): Linear(in_features=112, out_features=51, bias=True)
      (2): Linear(in_features=51, out_features=96, bias=True)
    )
    (1): ModuleList(
      (0): Linear(in_features=278, out_features=112, bias=True)
      (1): Linear(in_features=112, out_features=51, bias=True)
      (2): Linear(in_features=51, out_features=96, bias=True)
    )
  )
  (fitting_out): ModuleList(
    (0): Linear(in_features=96, out_features=1, bias=True)
    (1): Linear(in_features=96, out_features=1, bias=True)
  )
)
Number of parameters in the net: 321332
Start training using device:  cuda , count:  1
LR update: lr = 0.000500
Force check:
 tensor([[ … device='cuda:0')
Additional parameters check:
 std:
 tensor([[[0.0850862741, 0.0538603853, 0.0538603853, 0.0538603853],
         [0.0834543338, 0.0531116876, 0.0531116876, 0.0531116876]]],
       device='cuda:0') 
…
